model/model.pth (torch, 17609 bytes, 4 tensors)

linear1.weight f4 [256, 11]
000000 6a f6 f3 3e d9 fb 83 3e 5f 30 15 be 4a f4 cd bd
       0.47648937 0.25778082 -0.14569233 -0.1005636
000010 af 44 15 be b2 0e e7 bd 9e bd 3b bc 8c 5a a0 bd
       -0.14576982 -0.112821 -0.0114587825 -0.078297704
000020 c7 c6 3b 3d b9 59 ac 3e b0 1d a8 3e d0 45 94 be
       0.045843866 0.33662203 0.3283515 -0.28959513
000030 53 52 bb 3e 39 a7 4b 3e 8a 76 9d 3c cf 66 7b 3e
       0.36586246 0.19888009 0.019221563 0.24550937
000040 de fe 94 bd bc 2b a1 3e d4 62 4a 3e 59 4c 4a 3e
       -0.072751746 0.3147868 0.19764262 0.19755687
000050 fa 66 6a 3e 07 78 b4 bd 66 85 ae be b9 a4 21 3f
       0.22890845 -0.08811956 -0.3408615 0.6314197
000060 b1 53 3a 3e ec 1c f0 3d 5c b9 2a 3e f7 3d 8c bd
       0.18195988 0.117242664 0.16672271 -0.06847756
000070 ef c4 97 be 5e b5 74 3e 02 4d 6b 3d 89 07 02 be
       -0.29642436 0.23897311 0.057446487 -0.12698187
000080 c6 78 33 be 80 80 dd 3c 58 98 0d bd dc 3c 6a be
       -0.1752654 0.027038813 -0.034569114 -0.22874779
000090 ca b6 32 3e 50 06 fb 3d 4b f4 4e be 8a a7 6f be
       0.17452541 0.122570634 -0.20210378 -0.23403755
0000a0 4c f9 c2 bd 0f 14 0e be 2b 86 24 bd 69 39 13 be
       -0.09520206 -0.13874839 -0.040167015 -0.14377369
0000b0 05 79 95 be 17 bd 8d be 98 ed a8 be d2 d6 8d 3e
       -0.29193893 -0.27683327 -0.3299377 0.27702957
0000c0 43 57 9f 3e 02 0b 8e 3e 75 5e 43 be a9 32 dc bc
       0.31121263 0.27742773 -0.19079001 -0.026879625
0000d0 32 e8 75 be f2 69 78 bd 92 9f 56 be 59 b7 7b be
       -0.24014357 -0.060647912 -0.20959309 -0.2458166
0000e0 44 d7 63 3e d6 4d 3f bd 2d 90 9b 3e 50 a3 a2 bd
       0.22250086 -0.04670509 0.30383435 -0.07941306
0000f0 6a 35 89 be 5f 67 99 3e dd e3 84 3e 5e 7b c0 bd
       -0.26798564 0.29961678 0.25955096 -0.093985304
000100 2e a7 7c be 7d 8a 49 3e 6d 6c 00 3f 9c 1c d5 3c
       -0.24673149 0.19681735 0.50165445 0.026014619
000110 47 82 5f 3e e0 0d c1 3d e9 bc 03 be b4 f1 9f be
       0.2182704 0.094264746 -0.12865032 -0.31239092
000120 27 5b 6a bd de ed be bd c9 02 b8 3e 21 7f 84 3e
       -0.057215836 -0.09322713 0.35939625 0.25878242
000130 15 0b 5e 3d 44 3f 22 bd f5 0f 79 3d 86 3b 9a bd
       0.054209787 -0.039611116 0.060806233 -0.075308844
000140 ec 17 4e 3d 87 99 ce 3e 6e 4d df bd aa 75 05 3d
       0.050315782 0.40351507 -0.109034404 0.032582916
000150 a4 23 28 3e 1e 22 b4 be f4 ef ce 3e bf e7 ab be
       0.16419846 -0.3518228 0.40417445 -0.33575246
000160 16 de af 3e 77 77 d0 be 75 b0 4a be d8 22 80 be
       0.34349126 -0.40716144 -0.19793876 -0.25026584
000170 e6 3c bf 3c 8c 2a cc 3c 4a e9 2f 3e 9e 4a 92 3e
       0.023344468 0.024922632 0.17178836 0.28572553
000180 53 b6 42 be b8 93 29 3d 5f 3a fb bd 47 33 d8 3e
       -0.19014864 0.04140064 -0.12266993 0.42226622
000190 2e 69 ab 3e 50 d3 a6 bd b7 88 6d be 7c 74 73 be
       0.33478683 -0.081457734 -0.23196684 -0.23774904
0001a0 ef 17 a9 3e 81 99 a4 bc d5 2f 0a 3e 81 a4 c6 3e
       0.33026072 -0.020092728 0.13494809 0.38797382
0001b0 86 04 b1 be 60 a5 84 3d a9 2b 32 bd 62 ba 1c 3f
       -0.34573764 0.06476855 -0.04349867 0.612219
0001c0 cd 7a 7f be 92 9c a2 be 34 fb 6f 3e 2b 59 5c 3d
       -0.24949189 -0.3176008 0.2343567 0.053795975
0001d0 bb 7e 15 be 14 8d af 3e ed 80 b4 3e 01 18 bb bd
       -0.14599125 0.34287322 0.35254613 -0.09135438
0001e0 6e 0a 72 3e 57 05 ce 3d 13 fa 70 3d e7 e8 e2 bd
       0.23636791 0.10059612 0.05883224 -0.11079579
0001f0 65 ed 8a be 83 f2 e4 3d 34 69 9a be 17 d1 88 3e
       -0.27134243 0.11179068 -0.3015839 0.26722023
000200 35 73 42 3e ca 06 f8 bd e2 bf 81 3e a6 40 a1 be
       0.1898926 -0.1211067 0.25341707 -0.31494635
000210 72 ce 17 3f 9c d7 db be ba c1 cf be 0e a1 1f be
       0.59299386 -0.42937934 -0.4057749 -0.15588781
000220 19 b9 42 3c d7 95 4d be e4 d1 1f 3e 1d af 53 3d
       0.011884951 -0.2007669 0.1560741 0.051680673
000230 22 32 3b 3d d4 14 58 3c fc af 87 3e 7c a9 71 be
       0.045702107 0.01318856 0.26501453 -0.2359981
000240 4a c4 64 be 2c fa 0d 3f 52 0a a5 3e 9a 31 68 be
       -0.22340503 0.55459857 0.32234436 -0.22675171
000250 e3 ec 46 3e 34 a8 91 3d 01 e5 4e bc b0 3a c5 3d
       0.19426303 0.0711216 -0.012627841 0.096303344
000260 ea 9e e5 bd f6 6c e2 3d c7 4c c4 3e df 4a 01 3e
       -0.11211951 0.11055939 0.38339826 0.12626217
000270 98 58 4a be 9d 35 ed bc 99 62 81 be 47 7d 1a bd
       -0.19760358 -0.028956229 -0.25270537 -0.03771713
000280 93 97 76 3e 56 13 c4 bc bb af 31 be 26 b4 bd bd
       0.24081258 -0.023935001 -0.17352192 -0.09262876
000290 d8 d9 5d be 9d 18 a7 3c cd f2 a9 3e d1 6d b6 3d
       -0.21665132 0.020397479 0.33193055 0.089076646
0002a0 71 0b 96 3e 43 12 8d be 93 a2 17 be c9 9b d1 3d
       0.29305604 -0.27552995 -0.14808111 0.10234792
0002b0 9b 7b ea bd 96 66 96 3e e2 ea 8e be 4e 3d 8c 3d
       -0.11449357 0.29375142 -0.27913576 0.068476304
0002c0 9c 70 c0 ba 6c db 6b bd 60 76 47 3d 48 52 25 bd
       -0.0014681998 -0.057582304 0.048696876 -0.040361673
0002d0 80 63 04 bd d8 01 1d 3d 7f 84 4b 3e 8f c5 07 be
       -0.032321453 0.038331836 0.19874762 -0.13258956
0002e0 bf c2 e2 bd 16 9b aa bd 49 4c 75 be 0a 53 3e 3e
       -0.11072301 -0.083303615 -0.23954882 0.18586364
0002f0 54 fb b8 bd 0a b0 88 be 1c 52 91 3d e8 f7 50 be
       -0.09032312 -0.26696807 0.07095739 -0.20407069
000300 b6 d8 c7 3d 93 92 82 be 65 57 a0 3d 64 96 92 bd
       0.09758131 -0.25502452 0.07829169 -0.07157591
000310 df 94 4d be 8c 18 03 bd 2f c1 16 be 2c 9c 9a be
       -0.20076321 -0.03200583 -0.14722131 -0.30197275
000320 43 f3 0f 3f ba 83 dd 3e 92 b8 42 be ad 04 0a 3e
       0.5623056 0.43264562 -0.1901572 0.13478346
000330 1e 60 11 bd a7 a5 4e 3e a2 d7 b0 be e9 df 8a 3d
       -0.035492055 0.20180379 -0.34539515 0.06780989
000340 95 b7 93 be e1 ba c1 3e d4 0d 04 be 5f d5 49 be
       -0.28851 0.3783789 -0.128959 -0.19710301
000350 db 5a 98 3e d8 fc 31 3e 0c 64 6c be 49 b5 0f be
       0.29756817 0.17381608 -0.2308504 -0.14033999
000360 76 11 a1 be 32 87 16 be 65 b1 5c 3e f3 af 09 3e
       -0.31458634 -0.1470001 0.21552046 0.13446026
000370 7e 27 96 be 69 76 a0 3d 23 77 2c be 3d d9 51 bd
       -0.29327005 0.07835085 -0.16842322 -0.051232565
000380 40 90 89 be af c8 35 be 62 28 6b be d2 e1 06 be
       -0.26867867 -0.17752336 -0.22964624 -0.13172081
000390 a4 94 08 3d 54 cb 55 be df 8a 8f 3c 94 78 73 be
       0.03334488 -0.20878345 0.017522274 -0.23776466
0003a0 bd df 44 3e 0f 34 ae 3e e2 37 74 3d 7d 94 57 be
       0.19225974 0.34024093 0.059623607 -0.21052738
0003b0 c1 d4 8e bd 95 e7 76 3e 82 d0 e1 3d 6d 55 98 3e
       -0.06974173 0.24111779 0.11026098 0.29752675
0003c0 df fa 03 3e dc 95 23 3e cf 8e 74 bd f2 a2 ac bd
       0.12888668 0.15975136 -0.059706505 -0.08429517
0003d0 31 a7 b4 3b 79 8d 11 be bf 24 a1 3e 68 2d f7 bd
       0.005513095 -0.14214124 0.31473348 -0.120692074
0003e0 a3 df 49 be 3e a3 37 be b8 ce a1 3e d1 9e 73 be
       -0.19714217 -0.17933366 0.31603026 -0.23791052
0003f0 06 64 2c be 9a 51 86 be d0 db e5 3e bd 7f ec 3e
       -0.16835031 -0.26234132 0.44894266 0.46191207

linear1.bias f4 [256]
000000 4f f0 26 3e 1f 20 3f be 47 43 aa bd 35 f5 25 be
       0.16302608 -0.18664597 -0.083136134 -0.1620682
000010 64 d1 4a 3e 6b 56 9b bd 06 d9 71 3c 2e 2b 76 be
       0.19806439 -0.07584842 0.014761215 -0.24039909
000020 e4 17 2d bd aa 86 0d 3d 89 09 99 bd e3 f4 a9 3d
       -0.042259112 0.034552254 -0.07472522 0.082986616
000030 c1 c9 87 3e 72 af 5d be 7f 55 f3 bd 97 b4 45 be
       0.26521114 -0.21648958 -0.118815415 -0.19307171
000040 28 9f 30 be 29 53 9d be 37 84 da 3d e5 ba 15 3c
       -0.17248213 -0.3072751 0.10669749 0.009138797
000050 6c de ee bd 03 3a 5e bd 6d af 3c be ce 7c 77 3e
       -0.11663517 -0.054254543 -0.18426295 0.24168703
000060 8b e6 13 3e 1f 52 20 be ec 14 81 be da bd 12 be
       0.14443414 -0.15656327 -0.25211275 -0.14330235
000070 0e 43 42 3e bd 34 81 bd 11 f5 2d bd 80 9d ff 3d
       0.18970892 -0.06308887 -0.04247004 0.124812126
000080 ab 04 e0 3b 7f d4 56 be 17 71 00 be 08 4f 0b 3c
       0.006836494 -0.20979498 -0.1254314 0.008502729
000090 80 ce 68 3d 1f 52 4c 3d cb c9 48 be 03 d0 45 bd
       0.05683756 0.049883004 -0.19608228 -0.04829408
0000a0 40 1b 3f 3e 10 37 32 bd af 67 c0 bd 27 d1 3f 3e
       0.18662739 -0.043509543 -0.09394776 0.18732129
0000b0 13 1a c1 bd f2 62 d0 3d 31 c5 38 bd fd 47 d5 3d
       -0.094288014 0.10175122 -0.04510993 0.10414121
0000c0 8e fa eb 3d 81 8b 41 3a e9 47 bc 3d 12 74 97 be
       0.11522399 0.00073831534 0.09193403 -0.29580742
0000d0 12 49 e3 bd d3 52 4e 3e 7b 91 9b bd 3f 7c 87 3d
       -0.110979214 0.20148782 -0.075961076 0.06615495
0000e0 19 d4 0e be cc 32 d1 bd 04 aa 96 3d 1d 31 a6 3d
       -0.13948096 -0.10214767 0.07356647 0.08114836
0000f0 98 94 08 3d 72 cb 9d 3d 44 7e bb 3d 80 dc 2c 3e
       0.033344835 0.0770482 0.09154943 0.16880989
000100 2a b3 df 3d 0e 8f d2 3d c8 86 3c 3d af c3 86 3c
       0.10922845 0.10281192 0.046026975 0.016450731
000110 a1 d4 37 3e 85 b7 35 3d 97 f8 e4 3e 18 8b ca bd
       0.17952205 0.04436447 0.4472091 -0.09889811
000120 db 24 a0 3e fe 9e 46 be c9 a8 57 bd 42 dd 5d bc
       0.31278118 -0.19396588 -0.0526512 -0.0135415215
000130 2d f2 15 3d f8 5d 5c 3e 85 66 8d 3d 7c fe c9 bd
       0.03660791 0.21520221 0.0690432 -0.09862992
000140 bf 6d 16 be dc 62 8f 3e 81 3f 59 be 5a 70 7d 3e
       -0.14690302 0.2800511 -0.21215631 0.2474989
000150 22 f0 e1 bd e5 73 00 3e 84 58 27 3e 63 94 8f be
       -0.1103213 0.1254421 0.1634236 -0.28042898
000160 71 28 09 bd b6 07 3a be 1b 34 05 bd 75 70 65 3e
       -0.033485834 -0.18167004 -0.032520395 0.2240618
000170 b7 e3 5f be b4 44 0e be 40 7b 56 3e 37 f1 4f bd
       -0.2186421 -0.13893396 0.20945454 -0.05076715
000180 9a f0 1c 3e e3 4e 60 bd 3a 50 d4 bd 90 f2 2d 3e
       0.15326157 -0.054762732 -0.103668645 0.16987062
000190 62 5c d5 3d 60 9f 27 be 42 0a 2e 3c 58 47 0f 3d
       0.10418011 -0.1636939 0.010622563 0.034980148
0001a0 72 0b fa bd 0d d9 1e bd 60 4e e8 bd 30 24 de bd
       -0.12209214 -0.038781215 -0.11343074 -0.10846746
0001b0 c4 5f 44 3d 5c 51 7c be e4 f3 8a 3e e8 c5 2a 3e
       0.04794289 -0.24640411 0.271392 0.16677058
0001c0 e6 43 e0 bd 0d 90 9d bd e5 77 59 3e 45 02 fc bd
       -0.109504506 -0.07693491 0.21237142 -0.123051204
0001d0 8b 1a d5 bd 7f ba f8 3d 3c d0 01 3d a2 55 b5 bd
       -0.10405453 0.12144946 0.03169273 -0.08854224
0001e0 45 74 2c 3e 0e d4 a7 3d b0 8a e6 3d 14 6d c2 bd
       0.16841228 0.08194743 0.11256921 -0.09493461
0001f0 6c 10 1c be 64 e7 d1 bd be 77 60 bd c9 62 28 3e
       -0.1524064 -0.102492124 -0.054801695 0.16443934
000200 85 43 2b be 94 89 3b 3e 4b 39 3f be fd 09 bb bb
       -0.16724975 0.183142 -0.186742 -0.005707978
000210 09 0e bc 3d c8 ea 02 be d1 7e 77 3d 05 8f 7e 3c
       0.091823645 -0.12784874 0.060423676 0.015537028
000220 01 ca 09 be 8c 49 da bd 1e 15 e5 3d 4e e4 0e 3d
       -0.13455965 -0.10658559 0.111856684 0.034885697
000230 a7 0e bc be 8e 97 e7 bd 2d 76 ed 3d 85 e8 fe bd
       -0.3672993 -0.11308204 0.11594806 -0.12446693
000240 28 0a 60 be 58 b9 d0 bd ff 34 89 3d af 57 22 be
       -0.21878874 -0.101916015 0.06699561 -0.15853761
000250 e8 60 73 3d 54 19 f6 3d a0 91 3f be fd 38 10 3e
       0.05941859 0.1201655 -0.18707895 0.1408424
000260 1d 19 a3 3e d2 dd c5 bd 1c 6d 80 3e 07 ca 71 bd
       0.31855097 -0.096614495 0.25083244 -0.05903056
000270 35 b2 d2 bd 10 2c 10 be ea fc 21 be 4d 63 a6 be
       -0.102878965 -0.14079309 -0.15819135 -0.32497635
000280 25 b9 f2 3d 08 46 a6 be e4 5a 82 be 5f 86 33 bd
       0.1185172 -0.32475305 -0.2545997 -0.043829318
000290 29 b0 cc 3d f8 b7 e1 bb ec 12 b6 3d 14 67 66 be
       0.099945374 -0.006888386 0.08890328 -0.22500259
0002a0 ef 09 96 3d dd e7 f0 bd 3a 5d 1d be 2c 09 96 bd
       0.073261134 -0.117629744 -0.15367594 -0.07325968
0002b0 62 a6 01 3e a4 99 2d 3d 3e 25 85 be 2e 6e 29 bd
       0.12661126 0.04238285 -0.26004976 -0.04136484
0002c0 b7 d4 62 be f7 6a 9a be 46 8b 3c 3d d1 6c 1d 3d
       -0.22151457 -0.30159733 0.04603126 0.038433854
0002d0 1d 16 1e 3d 63 ca 64 3d c2 1f 06 be 74 67 60 bd
       0.038595308 0.055857074 -0.13098052 -0.05478616
0002e0 ff ef 82 3e ee b1 96 be aa a1 dc bc 72 ec 1a 3c
       0.25573727 -0.29432625 -0.026932556 0.009455787
0002f0 c3 fc bd bd 8f dc b6 bc 9c 62 3a be 3a af bf bd
       -0.09276726 -0.022321967 -0.18201679 -0.09359594
000300 63 cb 89 3c 91 d3 93 3e 0b cd a1 be 88 85 af 3e
       0.016820615 0.2887235 -0.31601748 0.34281564
000310 59 7e 27 bd 22 69 f0 bd 88 99 c0 3c d0 b1 28 be
       -0.04089198 -0.117388025 0.02351071 -0.1647408
000320 67 8d 95 be 54 50 0d 3e e6 ad 0f 3d 83 60 9f 3d
       -0.29209444 0.13800174 0.03507795 0.0778208
000330 3b d6 21 be 91 7b 99 be 3c 42 55 be 0b f0 46 3e
       -0.15804379 -0.29977086 -0.20826048 0.19427507
000340 c3 b9 09 be b9 bd be bd 25 a2 5f bd ed d1 30 3c
       -0.13449769 -0.093135305 -0.054597992 0.010792238
000350 f7 78 89 bd 30 89 87 3d 00 32 60 bc f2 85 1a be
       -0.06712525 0.06617963 -0.013683796 -0.15090159
000360 99 0e d0 3d 81 95 47 3e d1 12 14 3c e1 96 0e 3e
       0.10159034 0.19490625 0.009037689 0.13924743
000370 a3 76 e9 bc 97 85 17 be cd df f1 bd d3 d8 b9 bd
       -0.028498953 -0.14797054 -0.11810265 -0.09074559
000380 88 99 5a 3e e7 4f 4e 3e 7b 65 38 be 08 77 41 3e
       0.2134763 0.20147668 -0.18007462 0.18893063
000390 be b5 de 3d 46 8a 4c be 7a e3 3d be bf 44 4e 3e
       0.10874508 -0.19974622 -0.18543807 0.20143412
0003a0 e3 eb 99 3d 33 d7 d0 bd 85 2c d1 bd 0f ed 46 3e
       0.07515695 -0.10197296 -0.102135696 0.19426368
0003b0 9b 63 f5 3c 7d f4 6a be 08 8c 44 3e 83 3e 41 be
       0.029954722 -0.22944827 0.19194043 -0.18871503
0003c0 b1 94 ea bd f5 2d 84 3e 3c ab 18 be 7d c7 81 3c
       -0.11454142 0.25816312 -0.1490907 0.015842194
0003d0 a4 32 3a 3e f0 cb 97 3c 36 3e d5 bd a7 81 8d bc
       0.1818338 0.018529862 -0.104122564 -0.017273737
0003e0 64 3d 5f 3e 28 87 03 3e 54 f0 f7 bc 5c 24 a9 bd
       0.21800762 0.12844527 -0.030265965 -0.08258888
0003f0 63 21 92 3e 7d c1 2f 3d 51 e8 42 be 3a ff 37 3e
       0.28541097 0.042909134 -0.19033934 0.17968455

linear2.weight f4 [3, 256]
000000 37 12 fa bd 37 4a 98 bd 0a 3c 52 3e 9a 70 27 bd
       -0.122105055 -0.0743603 0.20530716 -0.04087887
000010 58 e4 71 3e 41 32 7a 3e 86 fc 84 be 76 ec 41 be
       0.23622262 0.24433233 -0.2597391 -0.18937859
000020 db 4b 6d be 76 38 96 be 70 d7 00 be cc 64 65 be
       -0.23173468 -0.2933995 -0.12582183 -0.22401732
000030 c6 77 ff bd d8 4b a5 bc 22 48 52 be 46 9f a8 bc
       -0.12474017 -0.020177767 -0.20535329 -0.02058376
000040 58 05 0c bd 24 09 a8 bc 2a 8e 86 3e 60 5a cf be
       -0.034184784 -0.020512171 0.26280338 -0.40498638
000050 cb 46 ab 3d a2 0c af bd c4 b9 60 3e 3f 62 47 3d
       0.08363112 -0.085473314 0.21945864 0.04867768
000060 3f f5 bf be 0b f9 e2 be c6 6f ab be 59 62 a2 bd
       -0.37491795 -0.4433063 -0.33483714 -0.079289146
000070 6e d5 79 bd 98 37 29 be 5f 72 71 bd 1a 7f 02 3d
       -0.060994558 -0.16525114 -0.058946963 0.031859495
000080 06 a1 22 be 7a c8 9a ba fd 93 03 be ef 7f 02 be
       -0.15881738 -0.0011809014 -0.12849422 -0.12744115
000090 93 0c 90 bd 19 49 dc 3c 8f d7 1c be a5 8e 4a be
       -0.07033648 0.026890324 -0.15316604 -0.19780977
0000a0 bb d0 3b be d6 00 52 3e 8a cc 54 be f0 fd 29 3d
       -0.18341343 0.20508131 -0.2078115 0.04150194
0000b0 da 95 ef 3d cb 49 32 bd a6 31 84 be 68 a6 93 3e
       0.11698504 -0.043527406 -0.2581913 0.28837895
0000c0 6d bf 58 bd 7b 7e 6c bd c8 bf 28 3e ed a6 4f 3d
       -0.052916933 -0.05773781 0.16479409 0.050696302
0000d0 94 e8 c5 bd 20 86 0e 3d 23 af ce bd a1 17 73 be
       -0.096635014 0.03479588 -0.100919984 -0.23739482
0000e0 de 58 67 bc 55 fa 37 be a0 62 b6 bd d4 f1 b6 bc
       -0.014120309 -0.17966588 -0.0890553 -0.02233211
0000f0 b3 1a 14 be 59 ad 8f 3e fb 85 63 3e 59 5e 79 be
       -0.1446331 0.2806194 0.22219078 -0.24352397
000100 c9 ca 04 3d e3 f1 e0 bd ad ec a8 3e c3 65 49 be
       0.032419953 -0.10983636 0.3299307 -0.19667725
000110 fb d7 12 3d d6 e2 7d 3e 31 ee 70 3e 3b 83 50 bd
       0.035850506 0.24793562 0.23528363 -0.0509064
000120 bf 43 a0 3e ba f6 83 3d f2 52 f2 bc 34 42 bf bd
       0.31301686 0.06443544 -0.029580567 -0.09338799
000130 59 76 45 3e 08 bf 59 3d 68 48 0b bd 69 c3 12 be
       0.19283427 0.053160697 -0.0340046 -0.14332356
000140 02 ff 13 3e cb 88 9d 3e 9f 6f 0f 3d 7b 4d 2c 3e
       0.14452747 0.30768427 0.03501856 0.16826431
000150 03 be 31 bd 44 9f a9 3e c2 c0 71 ba ad 69 1f 3c
       -0.0433941 0.33129323 -0.00092221436 0.009729785
000160 0e da 05 3c fb c9 1e 3e 9c d3 a8 bd e2 3a 5f 3e
       0.008169664 0.15506737 -0.08243486 0.21799806
000170 c6 fa 8c be bd 1d 35 be 80 db 70 3d f9 e2 8e be
       -0.27535075 -0.17687126 0.05880308 -0.2790754
000180 66 da ca bc 56 6b 65 3d f4 76 3b bd c9 b8 e6 bd
       -0.024762344 0.056010567 -0.04576774 -0.11265714
000190 24 bb 42 3e a6 37 48 be 84 53 86 3d 36 b0 09 be
       0.19016701 -0.19552478 0.06558898 -0.13446125
0001a0 da 6b 36 3e 79 34 83 be 21 00 14 be 59 28 14 3e
       0.1781458 -0.2562597 -0.14453174 0.14468516
0001b0 c7 df 38 be 72 ab 11 bd 6f c4 23 bc f9 fb 10 bd
       -0.18054114 -0.035563894 -0.009995564 -0.03539655
0001c0 29 c6 9e 3d 3e 69 8a 3e 1d a1 24 3e 8b c4 f3 3b
       0.0775264 0.27033418 0.16077085 0.007439201
0001d0 9b 59 1d be e8 a8 48 bd 8e b5 68 be d5 11 03 be
       -0.15366213 -0.048989207 -0.22725508 -0.12799771
0001e0 89 55 8c bd eb b8 4d bd 75 e1 66 bd 40 55 cd be
       -0.06852252 -0.05022518 -0.056367356 -0.40104103
0001f0 80 58 48 be 03 fb 37 be bc 52 53 be 69 ee c1 bd
       -0.1956501 -0.17966847 -0.2063703 -0.09469301
000200 14 8d 8d bd 5b d3 7c 3d 98 5c b1 be 10 ff d6 bd
       -0.06911674 0.061725 -0.34640956 -0.10497868
000210 64 b8 6e 3e 19 81 34 3e 50 ae bf bd 76 49 a0 bd
       0.23312527 0.17627372 -0.09359419 -0.078265116
000220 97 33 8c be 30 6e 1c be 7a d4 be bd c8 05 8e bd
       -0.2738311 -0.15276408 -0.093178704 -0.069346964
000230 87 8d 9c bd 11 d7 56 3e 8f 87 8f bd bf 5c 1f 3e
       -0.07644182 0.20980479 -0.070082776 0.15562724
000240 78 78 8b be 06 5a 06 be 11 cc ff bd cc f5 31 be
       -0.27240348 -0.13120279 -0.124900945 -0.1737892
000250 40 67 f2 3d cb 1a 66 3e b9 06 48 be 7e d0 73 3d
       0.118360996 0.22471158 -0.19533814 0.059525006
000260 fb ae 8e 3e 4e 85 9e be d4 64 2d 3e 2c a4 5d be
       0.27867875 -0.30961078 0.16932994 -0.21644658
000270 a6 45 16 be 53 9a 59 be b4 99 da 3d c1 f4 2e bc
       -0.14675006 -0.21250276 0.10673848 -0.010678471
000280 b7 76 00 3e b0 dd 2d 3c 5f bd 30 bd bd 5a 09 be
       0.12545286 0.010611936 -0.04314935 -0.1341352
000290 88 d3 98 3c e5 ac 5b be fd f5 af 3c ad 4e 3b be
       0.018655553 -0.21452673 0.021479601 -0.18291731
0002a0 e4 7c ef bc 74 76 1d be a1 0e 14 bd a4 64 88 3c
       -0.029234357 -0.15377218 -0.036146764 0.016649552
0002b0 78 94 d0 bc ab 06 18 bd 7e 91 b7 bc cf 62 05 be
       -0.02546142 -0.037115734 -0.022408243 -0.13025974
0002c0 ac a1 13 3b d7 1e fe 3c fb 25 c4 3d 58 20 b4 3e
       0.0022526784 0.031020565 0.09577557 0.35180926
0002d0 4e 74 71 3e 0b 29 4d 3c b4 17 c7 bd 4e 11 2d be
       0.23579523 0.012521992 -0.09721318 -0.16901132
0002e0 b6 02 67 3c 20 c0 5f 3d 17 94 48 be 29 85 20 bd
       0.014099767 0.054626584 -0.19587742 -0.03918949
0002f0 8c 87 55 3e 41 66 30 3e 7d e6 2d be 55 b0 ce 3d
       0.20852488 0.17226507 -0.16982456 0.100922264
000300 8c 92 17 be f6 60 8f 3b 45 ba 1e 3b 2d 6b 2e 3e
       -0.14801997 0.0043755723 0.0024219912 0.17033072
000310 61 d5 43 3e bc 32 00 3e a0 a9 37 be 1c 96 23 bd
       0.19124366 0.12519354 -0.179358 -0.039938077
000320 f3 eb 2b be 20 4e 34 be 32 09 88 bd 5d 75 4b 3e
       -0.16789226 -0.17607927 -0.06642379 0.1986899
000330 f0 df 94 be 82 85 17 3c e9 e0 80 be 1f 7a 99 bd
       -0.290771 0.009248139 -0.25171593 -0.07493996
000340 58 4d e8 be b4 01 0b bf 1e a0 5a be 6e 0d d4 bd
       -0.4537151 -0.54299474 -0.21350142 -0.10354124
000350 37 2e d1 bd fd e9 24 be b1 32 c1 bd 4e b9 b9 be
       -0.10213893 -0.16104884 -0.09433497 -0.3627419
000360 3f 76 30 3e c8 ff 3e 3e 42 58 09 bd df 54 33 be
       0.17232607 0.1865226 -0.033531435 -0.17512845
000370 b2 78 f9 bc 53 f0 b3 be d5 a7 1d 3e 47 c8 1f 3e
       -0.03045306 -0.3514429 0.15396054 0.15603743
000380 4d 7a f5 3d 3b a0 23 3e ca 49 82 be 33 ca ce 3c
       0.11986218 0.15979092 -0.25446922 0.0252429
000390 fc e0 d5 3d a8 d7 85 be b0 d5 01 3d e8 47 aa 3e
       0.10443303 -0.26141095 0.03169793 0.33257985
0003a0 33 f3 66 be ca 1b 9b 3e 71 a2 71 be d8 a0 91 3e
       -0.2255371 0.3029464 -0.23597123 0.28443027
0003b0 bc c8 19 3e d6 a9 cb bd 98 15 15 3d ac 87 33 bd
       0.1501798 -0.09944503 0.036397547 -0.04383056
0003c0 48 d4 f8 bc c1 d2 e3 3d 39 68 38 be eb b1 c6 3d
       -0.030374661 0.111241825 -0.18008508 0.09701904
0003d0 25 05 c7 bd 20 56 d2 bd a7 42 a0 3e c4 c0 3f be
       -0.09717778 -0.10270333 0.31300852 -0.18725878
0003e0 a7 02 92 3d 5f e9 87 3c 36 b8 c2 3c f0 05 ba 3c
       0.07129412 0.016590772 0.02376948 0.02270791
0003f0 37 48 b4 bd bb ac c4 bd b6 44 45 be 2b f3 52 3d
       -0.088028364 -0.09603258 -0.19264492 0.051501434

linear2.bias f4 [3]
000000 3a 6a 4c 3d a9 c9 ae bd 2a 87 e5 bc
       0.049905993 -0.08534557 -0.028018553
